Model: "functional_1"
__________________________________________________________________________________________________
Layer (type)                    Output Shape         Param #     Connected to
==================================================================================================
input_1 (InputLayer)            [(None, 5, 1)]       0
__________________________________________________________________________________________________
conv1d (Conv1D)                 (None, 1, 31)        62          input_1[0][0]
__________________________________________________________________________________________________
batch_normalization (BatchNorma (None, 1, 31)        4           conv1d[0][0]
__________________________________________________________________________________________________
max_pooling1d (MaxPooling1D)    (None, 1, 31)        0           batch_normalization[0][0]
__________________________________________________________________________________________________
bilstm (Bidirectional)          (None, 1, 22)        3784        max_pooling1d[0][0]
__________________________________________________________________________________________________
dropout (Dropout)               (None, 1, 22)        0           bilstm[0][0]
__________________________________________________________________________________________________
permute (Permute)               (None, 22, 1)        0           dropout[0][0]
__________________________________________________________________________________________________
dense (Dense)                   (None, 22, 1)        2           permute[0][0]
__________________________________________________________________________________________________
permute_1 (Permute)             (None, 1, 22)        0           dense[0][0]
__________________________________________________________________________________________________
multiply (Multiply)             (None, 1, 22)        0           dropout[0][0]
                                                                 permute_1[0][0]
__________________________________________________________________________________________________
flatten (Flatten)               (None, 22)           0           multiply[0][0]
__________________________________________________________________________________________________
dense_1 (Dense)                 (None, 1)            23          flatten[0][0]
==================================================================================================
Total params: 3,875
Trainable params: 3,873
Non-trainable params: 2
__________________________________________________________________________________________________
