Model: "functional_1"
__________________________________________________________________________________________________
Layer (type)                    Output Shape         Param #     Connected to
==================================================================================================
input_1 (InputLayer)            [(None, 5, 1)]       0
__________________________________________________________________________________________________
conv1d (Conv1D)                 (None, 1, 31)        62          input_1[0][0]
__________________________________________________________________________________________________
smish (Smish)                   (None, 1, 31)        0           conv1d[0][0]
__________________________________________________________________________________________________
batch_normalization (BatchNorma (None, 1, 31)        4           smish[0][0]
__________________________________________________________________________________________________
max_pooling1d (MaxPooling1D)    (None, 1, 31)        0           batch_normalization[0][0]
__________________________________________________________________________________________________
scaled_dot_product_attention (S (None, 1, 31)        0           max_pooling1d[0][0]
                                                                 max_pooling1d[0][0]
                                                                 max_pooling1d[0][0]
__________________________________________________________________________________________________
bilstm (Bidirectional)          (None, 1, 32)        6144        scaled_dot_product_attention[0][0
__________________________________________________________________________________________________
dropout (Dropout)               (None, 1, 32)        0           bilstm[0][0]
__________________________________________________________________________________________________
flatten (Flatten)               (None, 32)           0           dropout[0][0]
__________________________________________________________________________________________________
masking (Masking)               (None, 32)           0           flatten[0][0]
__________________________________________________________________________________________________
dense (Dense)                   (None, 1)            33          masking[0][0]
==================================================================================================
Total params: 6,243
Trainable params: 6,241
Non-trainable params: 2
__________________________________________________________________________________________________
